AI/notebooks/insomnia_cnn_lstm_model.pt (torch, 109184 bytes, 7 tensors)

conv1.weight f4 [32, 13, 3]
0	0x3dbe79b3	0.09300556
1	0x3dd1b0d6	0.10238807
2	0xbd248526	-0.040166043
3	0x3df1ace1	0.11800552
4	0xbcc6b3c5	-0.024255643
5	0x3cadb28c	0.021203302
6	0xbdd432e0	-0.10361266
7	0x3d6db7ce	0.058036618
8	0x3deb780f	0.11497509
9	0xbe14e499	-0.14540328
10	0x3dc12e4e	0.0943266
11	0x3a3a5678	0.0007108222
12	0x3da59243	0.08084538
13	0x3b9c58fc	0.00477135
14	0x3db1b8c9	0.08677823
15	0xbce2b789	-0.027675407
16	0x3dc24ce4	0.09487322
17	0xbc1dde7f	-0.009635567
18	0xbd83de88	-0.06438929
19	0x3d002abf	0.031290766
20	0xbd9f938f	-0.077918164
21	0xbced9bb3	-0.029004907
22	0xbd9a23c3	-0.07526352
23	0x3dd09e4e	0.10186444
24	0xbd9e005c	-0.07714912
25	0xbd32a059	-0.04360995
26	0xbd91487c	-0.070939034
27	0xbd336671	-0.043798868
28	0x3d089fb8	0.033355445
29	0xbe3bf940	-0.183568
30	0x3dc8b9a0	0.0980103
31	0xbde8707d	-0.113495804
32	0x3e1aa4ed	0.15101977
33	0x3c86bb8b	0.01644685
34	0xbd7ec0ee	-0.06219571
35	0x3dc1c022	0.094604746
36	0x3d1df8af	0.03856724
37	0x3dffb48e	0.1248561
38	0x3c3a5cfd	0.011374709
39	0xbd3a024a	-0.04541234
40	0xbc6bc8ec	-0.014391165
41	0xbd9a3333	-0.07529297
42	0x3cee60be	0.029098865
43	0x3d34de35	0.044157226
44	0x3d46a554	0.048497513
45	0xbd5f19f4	-0.05446811
46	0x3dd36947	0.103228144
47	0xbc48ae59	-0.012248599
48	0x3da1ff20	0.07909989
49	0xbda62dba	-0.081141904
50	0xbe416d34	-0.18889314
51	0xbc8c2e73	-0.017111992
52	0xbd54edef	-0.051984724
53	0x3e08b319	0.1334957
54	0x3cadb92f	0.021206466
55	0x3cef708d	0.029228473
56	0x3bd79a82	0.006579698
57	0x3d00a3c8	0.031406194
58	0x3daa24e5	0.08307818
59	0xbd3a4f9c	-0.045486078
60	0x3c98edb5	0.018668035
61	0xbdce3f55	-0.100706734
62	0x3da47eee	0.080320224
63	0x3cf6284c	0.030048512
64	0xbca8be77	-0.020598633
65	0xbdc07559	-0.09397382
66	0x3e252a31	0.16129376
67	0xbe27deba	-0.16393557
68	0xbe17e43f	-0.14833163
69	0xbd67c457	-0.05658373
70	0x3e69d842	0.22836402
71	0x3de0f9c4	0.10985139
72	0x3e26a6f4	0.16274625
73	0xbdfce620	-0.1234858
74	0xbe02e0d8	-0.12781084
75	0xbdb067ad	-0.086135246
76	0xbdd2c4e6	-0.10291462
77	0x3db06797	0.08613508
78	0x3cb910d1	0.022591026
79	0x3d7d9487	0.061909225
80	0xbda643e3	-0.08118417
81	0xbdb6a25d	-0.08917687
82	0x3d4f8350	0.05066234
83	0xbdbd61be	-0.092471585
84	0x3dcb3861	0.09922863
85	0x3cd0d56a	0.025492389
86	0x3dd8e8da	0.10591288
87	0xbe10f401	-0.1415558
88	0xbc8ef65c	-0.017451458
89	0x3d8580b3	0.06518688
90	0x3d6dc3e2	0.058048137
91	0xbc37eacf	-0.011225416
92	0x3dbf12b4	0.09329739
93	0x3dbdc5c8	0.092662394
94	0xbda185be	-0.078868374
95	0xbda9cb3c	-0.08290717
96	0x3e1a1cf2	0.15050104
97	0xbd248f0e	-0.04017549
98	0xbd720ffa	-0.059097268
99	0xbe19b5dc	-0.1501078
100	0xbdb1e8c8	-0.086869776
101	0x3d8e5ba9	0.069510765
102	0x3d9f5b88	0.0778113
103	0xbe24623b	-0.16053097
104	0xbd974b1d	-0.073873736
105	0xbc9ee692	-0.019397054
106	0xbe259de7	-0.16173516
107	0xbe1b401e	-0.15161178
108	0xbda466c1	-0.08027411
109	0xbd3c75b2	-0.04601068
110	0x3e52ad9a	0.20574036
111	0x3d101a4d	0.035181332
112	0x3d5e569b	0.054281812
113	0xbdf54b64	-0.1197727
114	0xbd2cf47c	-0.042225346
115	0xbd028b04	-0.031870857
116	0xbcba8a6f	-0.022771088
117	0xbe0488d8	-0.12942827
118	0xbd610ce4	-0.054943934
119	0xbda4e467	-0.08051377
120	0x3aa5ac99	0.0012639939
121	0xbd71ade7	-0.059003737
122	0xbbb5dee7	-0.0055502537
123	0xbdaff704	-0.08592036
124	0xbdbb7eb8	-0.09155029
125	0xbd8bc58a	-0.06824787
126	0xbd03fa51	-0.032221142
127	0xbddb08a8	-0.106950104
128	0x3e22a872	0.1588457
129	0xbd5d8e6e	-0.05409091
130	0x3dde8e7d	0.10867021
131	0x3d0302f9	0.031985257
132	0xbde5cdab	-0.11220869
133	0x3e059a9f	0.13047265
134	0xbca5a6bd	-0.020221109
135	0xbd2d67ea	-0.04233543
136	0xbdf6bec8	-0.120481074
137	0xbe169adf	-0.14707516
138	0x3d2593a0	0.04042399
139	0xbd255a09	-0.040369067
140	0x3d4f1c5d	0.05056416
141	0xbde64a40	-0.11244631
142	0x3db213e1	0.08695198
143	0xbe2f53ad	-0.17121764
144	0xbbfa7c95	-0.007644246
145	0xbb0870be	-0.0020819153
146	0x3cf35a8b	0.02970626
147	0x3df48b42	0.11940624
148	0x3e3bbff7	0.18334948
149	0xbdb4b2dd	-0.08823178
150	0x3d0eda6b	0.03487627
151	0xbd98296b	-0.07429775
152	0xbcf0969d	-0.029368693
153	0xbdedda74	-0.11613932
154	0x3deed9d1	0.11662639
155	0xbe1742c3	-0.14771561
156	0x3cba101e	0.022712763
157	0x3cbcee54	0.023062862
158	0x3ce822fc	0.028336994
159	0xbd1a7c9c	-0.037716493
160	0x3d869b58	0.06572598
161	0x3d8369e0	0.064166784
162	0x3bf61f2e	0.007511041
163	0xbddd16cf	-0.10795366
164	0x3d8a5196	0.067538425
165	0xbc6b9977	-0.014379851
166	0xbd19afc9	-0.037521157
167	0x3e116c78	0.14201534
168	0x3d823da0	0.0635941
169	0xbdbdda3d	-0.09270141
170	0xbe1522d9	-0.14564075
171	0xbaaf9341	-0.0013395326
172	0x3e047ab7	0.12937437
173	0xbc615c77	-0.0137549555
174	0xbd80a31e	-0.06281112
175	0xbb920958	-0.0044566803
176	0xbdd0f782	-0.10203458
177	0x3d201013	0.03907783
178	0x3dd8ea49	0.10591561
179	0xbe1c3642	-0.15255073
180	0xbd1a4e3d	-0.03767227
181	0x3e02bf88	0.12768376
182	0x3d503e39	0.05084059
183	0xbe01a89d	-0.12661977
184	0x3e525a2f	0.20542215
185	0x3e0beafd	0.1366386
186	0x3db705cb	0.08936652
187	0xbe43360e	-0.19063589
188	0xbdefe97b	-0.11714455
189	0xba59e475	-0.0008311936
190	0xbd3d70ab	-0.046250027
191	0xbd4ad809	-0.049522433
192	0x3d9d8d32	0.076929465
193	0x3e174ce5	0.14775427
194	0xbd59fd53	-0.053220104
195	0xbb97800e	-0.0046234196
196	0x3cb0f80b	0.021602651
197	0x3b5cc3bb	0.0033686
198	0x3d1c2df0	0.038129747
199	0x3c99e3a0	0.018785298
200	0xbe0aa08c	-0.13537806
201	0xbd8c07d5	-0.06837431
202	0x3df384d0	0.11890566
203	0x3d4809a6	0.048837326
204	0xbcf023db	-0.029313972
205	0xbde8a097	-0.11358755
206	0xbdd8b995	-0.10582272
207	0xbdc84779	-0.09779257
208	0xbc4ced76	-0.012507787
209	0x3d323d6d	0.04351561
210	0x3d8e82b8	0.069585264
211	0x3d1cefb8	0.03831455
212	0xbe2392d4	-0.15973979
213	0xbdcc1aea	-0.09966071
214	0xbcab9f0e	-0.020949867
215	0x3e19b01e	0.1500859
216	0x3da7fcb4	0.08202496
217	0x3c8e77bf	0.017391084
218	0x3dd81f51	0.10552848
219	0x3c5c73bd	0.0134553285
220	0xbe35a0d5	-0.17737134
221	0x3c7d1388	0.015446551
222	0xbd091238	-0.03346464
223	0xbdd8498a	-0.105609015
224	0xbe802f2a	-0.25035983
225	0x3da83cdf	0.08214735
226	0x3e208e8d	0.15679379
227	0x3ddd74ca	0.10813291
228	0xbd5832c5	-0.052782793
229	0xbdcb189a	-0.09916802
230	0xbdb9e50b	-0.090768896
231	0x3db91c09	0.090385504
232	0x3d250ba5	0.04029431
233	0x3da96524	0.08271244
234	0x3d13797d	0.036004532
235	0xb76073a0	-1.33783615e-05
236	0xbbb6affa	-0.0055751773
237	0xbde7f68d	-0.11326323
238	0xbdc0d376	-0.09415333
239	0xbe00b039	-0.12567224
240	0x3d5a8107	0.053345706
241	0xbd14cdf4	-0.036329225
242	0xbd69af7d	-0.057052124
243	0xbd89be0a	-0.067257
244	0x3c8f5ed6	0.017501276
245	0xbe0c654a	-0.13710514
246	0xbdaf9c68	-0.08574754
247	0x3db13949	0.086535044
248	0xbcbe4e48	-0.023230687
249	0x3db58826	0.08863859
250	0xbbdd32b0	-0.006750427
251	0xbe359635	-0.1773308
252	0xba9482ad	-0.0011330448
253	0xbd95b23d	-0.07309387
254	0x3c142707	0.009042508
255	0xbe380946	-0.17972288

conv1.bias f4 [32]
0	0xbdbaec53	-0.091271065
1	0x3db8affb	0.090179406
2	0x3c9f8edf	0.019477306
3	0xbe2b672c	-0.16738576
4	0x3b498f9f	0.003075577
5	0xbc20ef30	-0.009822652
6	0xbd527478	-0.051380605
7	0x3e2adbe5	0.16685446
8	0xbd2bf5e7	-0.041982558
9	0x3e21dc46	0.15806684
10	0x3d72b89d	0.059258092
11	0xbe066c73	-0.13127308
12	0x3c984e19	0.018591927
13	0x3e270b0d	0.1631281
14	0xbe008745	-0.12551601
15	0xbdf196f3	-0.117963694
16	0x3e1ffebb	0.15624516
17	0x3e1e4a2a	0.15457979
18	0xbd2d68d1	-0.04233629
19	0x3dd3e903	0.10347178
20	0x3b3d6103	0.0028896935
21	0xbe2a137c	-0.16608995
22	0xbd1d00f9	-0.038331006
23	0x3dccb579	0.09995551
24	0xbcb34293	-0.021882331
25	0x3d92c405	0.07166294
26	0xbe0b7022	-0.13616994
27	0x3e2e3c8d	0.17015286
28	0x3dfc0bb2	0.12306918
29	0x3dba21b4	0.090884596
30	0x3d0c553f	0.034260985
31	0x3d3f7a61	0.04674757

lstm.weight_ih_l0 f4 [256, 32]
0	0xbe0517c9	-0.12997355
1	0xbc49710f	-0.012295022
2	0x3b2cedef	0.0026386937
3	0xbdf355ba	-0.118815854
4	0xbe20fb44	-0.1572085
5	0x3dd396b2	0.10331477
6	0x3d80ddb1	0.06292284
7	0xbe02b626	-0.12764797
8	0xbbf8ae59	-0.0075891432
9	0x3d8f5542	0.069986835
10	0x3e0bc64c	0.13649863
11	0x3c8ab7f3	0.016933417
12	0x3dc524ca	0.096261576
13	0xbd449ef0	-0.048003137
14	0x3cf74c74	0.030187823
15	0x3dbbaefe	0.091642365
16	0xbe1341a4	-0.14380509
17	0xbdd2e480	-0.10297489
18	0x3d1649a7	0.036691334
19	0xbba6668a	-0.0050781416
20	0xbdaa1203	-0.08304217
21	0x3b8043f7	0.003914352
22	0xbcefa512	-0.029253516
23	0x3d156b95	0.03647955
24	0xbd6a0383	-0.057132255
25	0x3cf0ebf0	0.029409379
26	0x3d992495	0.074776806
27	0xbdb535ab	-0.08848127
28	0xbc3acf7a	-0.011402005
29	0xbcd16269	-0.025559621
30	0x3cc7cf2e	0.024390783
31	0x3db955d6	0.09049575
32	0x3d043b27	0.032282975
33	0xbd0e125d	-0.03468548
34	0x3ddb6f92	0.1071464
35	0xbd9ae598	-0.07563323
36	0xbd74c0e9	-0.059754286
37	0x3b0c99e3	0.0021454028
38	0xbe04cf12	-0.12969616
39	0xbb4de083	-0.0031414337
40	0xbdd184d0	-0.1023041
41	0xbbcc7e3d	-0.0062406347
42	0x3c1a9f29	0.009437361
43	0xbc2d9606	-0.01059485
44	0xbdf4acd2	-0.11947025
45	0xbe0ec68f	-0.13942932
46	0x3d415e4f	0.04720908
47	0x3da626d7	0.08112877
48	0xbe0d6fb2	-0.1381214
49	0x3cda9c1b	0.026685765
50	0xbdd92645	-0.106030025
51	0xbcc9f266	-0.024651717
52	0x3db0c584	0.08631423
53	0x3d9bbd13	0.076044224
54	0xbdf46ff7	-0.11935418
55	0x3d9244b3	0.071420096
56	0x3d50a1ed	0.050935674
57	0xbb037757	-0.0020060146
58	0x3de78882	0.11305334
59	0xbd56db56	-0.05245527
60	0xbd2be198	-0.04196319
61	0xbdbee9be	-0.093219265
62	0x3c623fc8	0.013809152
63	0x3c882c75	0.016622761
64	0x3c482452	0.012215691
65	0xbd3502c2	-0.044192083
66	0xbd1d9838	-0.038475245
67	0x3cb413b7	0.021982057
68	0xbe057b00	-0.13035202
69	0xbc0bdc3f	-0.0085363975
70	0xbcd4b6b4	-0.025966026
71	0xbd3c1d66	-0.045926474
72	0x3ccc9689	0.024974125
73	0x3c4e9f69	0.0126112485
74	0x3de3b7e0	0.11119056
75	0xbce9f19b	-0.02855759
76	0xbdb5d9fe	-0.08879469
77	0x3da8ae6e	0.08236395
78	0x3c6a8ef4	0.014316309
79	0xbd2d0289	-0.042238746
80	0xbdc697e2	-0.09696938
81	0x3d13e84c	0.036110207
82	0xbddcc322	-0.10779406
83	0x3c034b6f	0.00801359
84	0x3d7a52b8	0.061114043
85	0xbded324f	-0.11581861
86	0xbda724d7	-0.081613235
87	0xbd975fc5	-0.073913135
88	0x3dd83160	0.105562925
89	0x3dbc0bac	0.09181914
90	0x3bc99d85	0.006152811
91	0x3e0a0dfa	0.13481894
92	0xbce2d996	-0.027691644
93	0xbe165a24	-0.14682823
94	0x3d591c54	0.05300553
95	0x3d5787a3	0.052619588
96	0x3e00b932	0.12570646
97	0x3d296936	0.041360103
98	0x3dd3e0c1	0.10345603
99	0x3d47d84b	0.048790257
100	0x3d9df86a	0.07713397
101	0xbddc1e7e	-0.107480034
102	0x3d8720de	0.06598066
103	0xbdd2a510	-0.102853894
104	0x3de76245	0.1129804
105	0xbb963e1f	-0.004585042
106	0xbdad2ea3	-0.08456161
107	0x3c7f4f9a	0.015582943
108	0xbd2f70c8	-0.042832166
109	0xbdef74bf	-0.116921894
110	0xbd8d5427	-0.069008164
111	0x3aa75ef3	0.0012769386
112	0x3da978e0	0.08275008
113	0xbcd245ec	-0.025668107
114	0x3d844139	0.06457753
115	0x3b47eeb8	0.0030507278
116	0xbb1bffd5	-0.002380361
117	0x3cafdfee	0.021469083
118	0xbdd5300a	-0.10409553
119	0xbd770b3a	-0.06031344
120	0xbd5b1a84	-0.053492084
121	0xbdd9ef39	-0.10641331
122	0xbd401079	-0.04689071
123	0x3d176745	0.03696372
124	0xbd726464	-0.05917777
125	0xbd51cae5	-0.051218886
126	0x3b558de6	0.0032585799
127	0xbb6518a5	-0.0034957316
128	0xbd6be635	-0.05759259
129	0x3d3a75e0	0.04552257
130	0x3c685742	0.01418096
131	0xbae1c7ca	-0.001722568
132	0xbcc5f80a	-0.024166126
133	0xbd52ee4c	-0.05149679
134	0xbd937b86	-0.072012946
135	0x3bdde9bf	0.0067722495
136	0xbdb211e8	-0.086948216
137	0x3d0b0ada	0.033945896
138	0x3c8ce8fd	0.017200941
139	0x3d1293c0	0.035785437
140	0x3c5e0e5b	0.013553227
141	0x3dba6e8e	0.09103118
142	0xbc605abf	-0.013693511
143	0xbdc8cdf7	-0.0980491
144	0x3d4bc6cd	0.049750138
145	0xbda85a83	-0.08220389
146	0xbc28bba3	-0.010298642
147	0xbd99562d	-0.0748714
148	0xbd463e7f	-0.048399445
149	0xbd3b9be2	-0.04580296
150	0x3dc7e32f	0.09760129
151	0x3de327c9	0.11091573
152	0x3d066105	0.03280737
153	0x3deaf1f3	0.114719294
154	0xbdecc36b	-0.115607105
155	0x3d4a6063	0.049408328
156	0x3dd549f4	0.10414496
157	0x3d8de5c8	0.06928593
158	0xbda1f040	-0.07907152
159	0x3d499d61	0.049222354
160	0xbd917065	-0.07101516
161	0xbb8f7542	-0.004377992
162	0xbca4a79c	-0.020099454
163	0xbe051680	-0.12996864
164	0xbe107435	-0.1410683
165	0xbdbecb3e	-0.09316109
166	0x3d5a8953	0.05335362
167	0x3d30a31f	0.043124314
168	0xbe073fc4	-0.13207918
169	0xbd4fb22b	-0.050707024
170	0x3b949c46	0.004535231
171	0xbe03c8ad	-0.1286952
172	0x3d51ed69	0.051251803
173	0x3df0a321	0.11749864
174	0x3cd00074	0.025390841
175	0xbde1e3d8	-0.11029786
176	0x3bb7dc7f	0.005611002
177	0x3d132b90	0.035930216
178	0x3de1b6f6	0.11021225
179	0xbdb64e30	-0.08901632
180	0xbdf5e7b1	-0.12007082
181	0x3d156e63	0.036482226
182	0xbc848076	-0.016174536
183	0xbd176862	-0.03696478
184	0xbd8561fd	-0.065128304
185	0xbd9a0ec6	-0.07522349
186	0x3dc14c1a	0.09438343
187	0xbc6cc20f	-0.014450564
188	0x3db0edfa	0.086391404
189	0x3db9cd6a	0.09072383
190	0x3bbbc6d0	0.0057304874
191	0x3ba653c4	0.0050759036
192	0x3bbf69d2	0.005841472
193	0x3db766c6	0.08955149
194	0xbddd38cc	-0.10801849
195	0x3dbf1d45	0.093317546
196	0xbca42dca	-0.020041365
197	0x3d83981e	0.064254984
198	0x3ccfbb7b	0.025357952
199	0xbd07a0fb	-0.033112507
200	0xbcbd7dd2	-0.023131285
201	0x3dbf859e	0.09351657
202	0xbd81af02	-0.06332208
203	0xbd67beb4	-0.056578353
204	0xbd6e4a1e	-0.058176152
205	0xbacc367c	-0.0015580202
206	0x3d654e21	0.055982713
207	0x3dd3bd01	0.10338784
208	0x3b89c76c	0.004204681
209	0x3e0f64bb	0.1400327
210	0xbc469c4c	-0.012122225
211	0xbcc8d251	-0.02451435
212	0xbcdb1827	-0.026744915
213	0xbd90885a	-0.07057257
214	0xbded44d9	-0.11585397
215	0xbd9e8256	-0.07739703
216	0xbe02efca	-0.12786785
217	0x3d952a7c	0.07283494
218	0x3dbce50c	0.09223375
219	0x3dfcb7f8	0.12339777
220	0x3de0b263	0.109715246
221	0x3ca59219	0.020211266
222	0x3d08f37c	0.03343533
223	0xbdd76ecc	-0.1051918
224	0x3d351a77	0.044214692
225	0xbde50670	-0.111828685
226	0x3d89c2db	0.06726619
227	0xbb57cddc	-0.0032929098
228	0x3ca1b7c0	0.01974094
229	0x3d435bd8	0.04769501
230	0xbd92263a	-0.071361974
231	0x3dd08ffc	0.10183713
232	0x3d4caff9	0.049972508
233	0x3d8761a7	0.066104226
234	0x3c564cd7	0.0130798435
235	0x3d75f937	0.060052123
236	0x3d7e2976	0.06205126
237	0x3d3d3cfe	0.046200745
238	0x3da2b858	0.07945317
239	0xbd1f0151	-0.038819615
240	0x3d8092df	0.062780134
241	0x3c438cc4	0.011935417
242	0x3d8c9415	0.06864182
243	0x3dc0558e	0.09391318
244	0x3c5dfec7	0.013549513
245	0xbd526753	-0.05136807
246	0xbd1046f6	-0.035223924
247	0x3d209a60	0.039209723
248	0x3c57b0fc	0.013164755
249	0xbd241827	-0.040062096
250	0x3db07c6d	0.08617482
251	0x3d950cfd	0.07277868
252	0xbda43ddc	-0.08019611
253	0xbce80fce	-0.028327849
254	0xbc97b7e8	-0.01852031
255	0xbdbe6dff	-0.09298324

lstm.weight_hh_l0 f4 [256, 64]
0	0xbd82d192	-0.063876286
1	0x3e15fb26	0.14646587
2	0xbd2d6871	-0.04233593
3	0x3d9f8379	0.07788748
4	0x3dfbe13f	0.12298822
5	0xbd0b2dca	-0.033979215
6	0xbda06808	-0.078323424
7	0xbe04cbc7	-0.1296836
8	0x3e237ad8	0.1596483
9	0xbe1c93d4	-0.15290767
10	0xbd10eeaf	-0.035383876
11	0x3e050780	0.12991142
12	0xbdbe2064	-0.09283522
13	0x3e344f4a	0.17608371
14	0x3cf9e405	0.030504236
15	0x3c377862	0.011198135
16	0x3b016050	0.0019741245
17	0xbcf40bf3	-0.029790854
18	0x3d517d42	0.051144846
19	0xbdc16e37	-0.0944485
20	0x3d4234ae	0.04741352
21	0xbd9cb8b9	-0.076524206
22	0x3db2b5e8	0.08726102
23	0x3e116640	0.14199162
24	0xbdb32bad	-0.08748565
25	0x3de8c675	0.11365978
26	0xbc77acff	-0.015116929
27	0x3dbd6631	0.09248007
28	0xbcb4b644	-0.022059567
29	0xbd05f73a	-0.032706477
30	0x3cb7f6ce	0.022456553
31	0x3d99981f	0.07499718
32	0x3e04788e	0.12936613
33	0x3c063d68	0.008193351
34	0xbc22ae1d	-0.009929207
35	0x3d4be65a	0.049780227
36	0x3c0e5795	0.008687873
37	0x3e0c52f8	0.13703525
38	0x3d5b4cf0	0.05354017
39	0x3dfed3d8	0.1244275
40	0x3cbc5c3e	0.022993203
41	0xbd8ffc8c	-0.07030591
42	0xbe136582	-0.14394191
43	0x3dba8525	0.091074266
44	0x3dac2529	0.08405525
45	0x3d593feb	0.053039473
46	0xbd7d3b09	-0.06182388
47	0x3df2cb88	0.11855227
48	0x3d2d57e9	0.042320166
49	0xbd72d9a0	-0.059289575
50	0x3b7b76d1	0.003837038
51	0x3dcf10dd	0.10110638
52	0xbdcd7d3e	-0.10033654
53	0x3d8890f2	0.06668271
54	0xbbf473cb	-0.0074600927
55	0xbc4aacd6	-0.012370309
56	0x3dc0a34c	0.094061464
57	0x3dd070b4	0.101777464
58	0x3e294bc3	0.16532807
59	0xbdc734cd	-0.09726868
60	0x3bd9f31b	0.006651295
61	0x3df9eaa4	0.12202957
62	0x3e2a0e75	0.16607077
63	0xbd596fe2	-0.053085215
64	0x3dd319ed	0.10307679
65	0x3dcd606e	0.10028158
66	0x3b94767d	0.0045307265
67	0x3de1c388	0.11023623
68	0x3dab8bf8	0.08376306
69	0xbd054367	-0.032534983
70	0xbc92ca52	-0.01791874
71	0xbd97ecdf	-0.074182265
72	0xbd56b5c1	-0.052419428
73	0xbdcfde02	-0.101497665
74	0x3d90a99c	0.070636004
75	0x3d966b59	0.07344694
76	0xbd4bc533	-0.04974861
77	0x3c1909a2	0.009340676
78	0x3dbfa30f	0.09357273
79	0xbba78a11	-0.0051128943
80	0xbdfca704	-0.12336543
81	0x3d7f3333	0.062304687
82	0x3d793fe9	0.060851965
83	0x3cb6342a	0.02224167
84	0x3d859c2b	0.06523927
85	0xbde7db6b	-0.113211475
86	0x3d4e98b6	0.050438605
87	0x3d67c504	0.056584373
88	0xbd6fd419	-0.05855188
89	0x3b67c372	0.0035364297
90	0x3dd728ff	0.10505866
91	0x3d27a2f3	0.040926885
92	0xbd59dd59	-0.05318961
93	0x3d97af9c	0.07406542
94	0x3ba10584	0.0049139876
95	0xbd108fbb	-0.035293322
96	0x3dcaed5e	0.099085554
97	0x3dc80261	0.09766079
98	0x3d526aea	0.051371492
99	0xbcd6005e	-0.026123222
100	0xbcc5a720	-0.024127543
101	0xbcc0779a	-0.02349453
102	0x3d93acd9	0.072107024
103	0x3dc3fe6f	0.09570014
104	0xbd74e353	-0.059787106
105	0x3def269a	0.116772845
106	0xbd529adb	-0.051417213
107	0xbd591f63	-0.05300845
108	0xbd6c73e2	-0.057727702
109	0xbd9d1e25	-0.07671765
110	0xbdb38ad4	-0.08766714
111	0x3dcf4e24	0.10122326
112	0xbcaeffe5	-0.021362254
113	0x3cc7ec5e	0.0244047
114	0xbdbd4bf9	-0.09243006
115	0xbcfc71bb	-0.03081595
116	0xbd8ca29c	-0.06866953
117	0x3d296c53	0.04136307
118	0xbe2700ac	-0.1630885
119	0x3cd96692	0.026538167
120	0xbdd22ece	-0.102628335
121	0xbdee8807	-0.11647039
122	0x3cd6859e	0.02618676
123	0x3be6fb30	0.007048987
124	0xbcce2c76	-0.025167685
125	0x3db948ff	0.09047126
126	0x3d543e4e	0.05181723
127	0x3c3c6498	0.011498593
128	0x3d5a73b7	0.05333301
129	0x3c3f8638	0.011689715
130	0xbde6f1a6	-0.112765595
131	0xbd0ae0ce	-0.033905797
132	0x3da16590	0.078807
133	0x3d5d5429	0.05403534
134	0x3d3bbcde	0.045834415
135	0x3ddca183	0.107729934
136	0xbd386af2	-0.045023866
137	0xbd33f5f8	-0.043935746
138	0xbc198793	-0.009370702
139	0xbc365f0f	-0.011131062
140	0x3deeae31	0.11654318
141	0xbddf93f2	-0.1091689
142	0x3ccc575f	0.024944006
143	0x3df172bb	0.11789461
144	0xbdae0126	-0.08496313
145	0x3dc3f15d	0.09567521
146	0xbddebd70	-0.10875976
147	0x3cb93701	0.022609236
148	0xbd8b794e	-0.068102464
149	0x3d16aaa2	0.036783822
150	0x3c7a1808	0.015264519
151	0x3d3ea71b	0.046546083
152	0xbd42a647	-0.047521856
153	0xbc74d417	-0.014943144
154	0xbdf53ada	-0.11974116
155	0x3cc5477f	0.024081944
156	0x3df4e6a0	0.11958051
157	0xbdac76cb	-0.084210955
158	0xbd91661e	-0.070995554
159	0x3d0e26a9	0.034704838
160	0x3d8af163	0.06784322
161	0x3cdce801	0.026966097
162	0x3dc21b8a	0.09477909
163	0x3c4c0131	0.012451456
164	0xbc81bbf0	-0.015836686
165	0xbda66297	-0.08124273
166	0xbe02d142	-0.12775138
167	0xbdb8e465	-0.09027938
168	0x3d97ff46	0.074217364
169	0x3df10486	0.11768441
170	0x3da1e875	0.07905666
171	0x3d9d6428	0.07685119
172	0x3aab37b0	0.0013062861
173	0x3dd4180f	0.10356151
174	0x3d5224ae	0.05130451
175	0xbdab1259	-0.08353109
176	0xbcb8db47	-0.022565497
177	0xbddccba6	-0.1078103
178	0x3dbfdaa1	0.09367872
179	0x3c8ffe57	0.017577333
180	0x3dcd6236	0.10028498
181	0xbbb2f603	-0.005461456
182	0x3d8e9221	0.069614656
183	0x3d988412	0.074470654
184	0xbca413ae	-0.020028915
185	0xbc4cc1f2	-0.012497412
186	0x3df25568	0.11832696
187	0xbc8cea4c	-0.017201565
188	0x3dc262dd	0.09491513
189	0x3cfdfa20	0.031003058
190	0xbcf9e6b7	-0.030505521
191	0xbd7f853c	-0.06238292
192	0xbd8f3ac0	-0.069936275
193	0x3db54f58	0.08853024
194	0x3dc4acc7	0.09603267
195	0xbd37fa3c	-0.044916376
196	0xbde1e567	-0.11030083
197	0x3d389bac	0.045070335
198	0xbd017995	-0.03161009
199	0xbdf73ea3	-0.12072494
200	0x3d43a920	0.047768712
201	0xbcc5909d	-0.024116809
202	0x3db2017d	0.0869169
203	0x3d27f668	0.041006476
204	0xbdc9a601	-0.09846116
205	0x3a9c7299	0.0011936008
206	0xbdacb687	-0.08433252
207	0x3d48285f	0.048866626
208	0x3ccbaf19	0.024863767
209	0x3d7d265e	0.061804168
210	0xbdd41c7b	-0.10356995
211	0xbd7e1efa	-0.06204126
212	0xbd84ea67	-0.06490021
213	0xbdeafcfe	-0.11474036
214	0xbe083aae	-0.13303635
215	0xbd99992e	-0.0749992
216	0x3d90d575	0.07071964
217	0xbcd9836d	-0.026551927
218	0xbc47eb64	-0.012202118
219	0x3d3ae45c	0.045627937
220	0x3d16b7e6	0.036796473
221	0x3d716d7a	0.058942296
222	0xbdf49bc8	-0.119437754
223	0x3dfe1ef3	0.12408247
224	0xbb75a9be	-0.0037485207
225	0xbd87cf4b	-0.06631335
226	0x3da31ef1	0.07964886
227	0xbdc52022	-0.096252695
228	0xbd8f1723	-0.06986835
229	0x3daac882	0.08339025
230	0x3d513122	0.051072247
231	0xbd171554	-0.036885574
232	0xbb59a74d	-0.0033211291
233	0xbd14973f	-0.036277052
234	0x3cc5510c	0.024086498
235	0x3c9c50ab	0.019081434
236	0x3d22305b	0.039596897
237	0x3dd6432c	0.10462031
238	0xbda5537b	-0.08072563
239	0xbda418c3	-0.080125354
240	0xbd100a5b	-0.035166126
241	0xbd29a4d2	-0.04141695
242	0xbdc3c4d1	-0.09559024
243	0x3dca531c	0.09879133
244	0x3ddc79db	0.107654296
245	0x3dd1b974	0.102404505
246	0xbdca7bd1	-0.09886897
247	0x3ba65816	0.0050764186
248	0xbdb8fbec	-0.09032425
249	0xbd4689ef	-0.048471387
250	0x3e086036	0.13317952
251	0x3c9d9552	0.01923624
252	0x3d44be21	0.048032884
253	0xbdf2a20a	-0.11847313
254	0x3d8b9497	0.06815451
255	0x3d8e1f71	0.06939591

lstm.bias_ih_l0 f4 [256]
0	0x3d76f565	0.06029262
1	0xbdb6d2ff	-0.08926963
2	0x3dfc67d4	0.12324491
3	0x3cebd550	0.028788239
4	0x3d82bc8d	0.063836195
5	0x3cd9fc78	0.026609644
6	0xbd2de388	-0.04245332
7	0xbc158776	-0.009126535
8	0x3cf287a0	0.029605687
9	0x3d5d3078	0.0540013
10	0x3d341449	0.043964658
11	0x3dbae0c5	0.09124903
12	0xbbe01996	-0.0068389876
13	0xbdbb8c76	-0.0915765
14	0x3d541bb6	0.05178424
15	0x3dd1b86e	0.10240255
16	0x3dac59f4	0.08415595
17	0xbdae28a7	-0.085038476
18	0x3be4132f	0.0069602947
19	0x3cd1f92f	0.025631515
20	0xbc3a1b1c	-0.011359002
21	0x3d46bd86	0.048520587
22	0xbdb9aacf	-0.09065782
23	0x3d13a622	0.03604711
24	0xbd9ff221	-0.07809854
25	0x3c24ae42	0.010051312
26	0xbd313b77	-0.0432696
27	0xbdf56027	-0.1198123
28	0x3d5d5a0c	0.054040954
29	0xbc905acc	-0.01762142
30	0xbb020bbe	-0.0019843425
31	0x3dc3e8d9	0.095658965
32	0x3dd91b56	0.10600917
33	0xbdba100c	-0.09085092
34	0xbc99a317	-0.018754525
35	0xbcfec6be	-0.031100627
36	0xbdee5fa2	-0.11639334
37	0xbe0738fc	-0.13205332
38	0xbd862bc3	-0.06551316
39	0xbd92223d	-0.07135437
40	0xbd1b2ca5	-0.037884373
41	0xbca24e92	-0.019812856
42	0x3df635c3	0.12021973
43	0xbd13fe3e	-0.036131136
44	0x3d8399df	0.06425833
45	0xbdd61281	-0.10452748
46	0xbce5f16f	-0.028069226
47	0xbc795fdc	-0.015220609
48	0x3cb17075	0.021660069
49	0x3dc0a55b	0.09406539
50	0x3d62784d	0.05529051
51	0x3c80b610	0.015711814
52	0x3d122e4d	0.035688687
53	0x3dfd7a32	0.123768225
54	0x3de7ac99	0.11312217
55	0x3d157693	0.036490034
56	0xbdbebdf6	-0.09313576
57	0x3d96f72a	0.073713616
58	0x3ce95eab	0.028487524
59	0x3d6c5150	0.057694733
60	0x3cd68cd9	0.026190208
61	0x3d33f3bd	0.04393362
62	0x3d2498c5	0.040184755
63	0x3d916439	0.07099194
64	0x3d8bc3d4	0.068244606
65	0x3dda3828	0.10655242
66	0xbdc9438f	-0.09827339
67	0x3d202626	0.03909888
68	0x3dc16ac2	0.094441906
69	0xbda2d08a	-0.07949932
70	0xbe281626	-0.16414699
71	0x3d631797	0.05544242
72	0x3bb51ffe	0.0055274954
73	0x3dc17bd9	0.0944745
74	0x3d872c46	0.06600241
75	0x3d9d8983	0.07692244
76	0xbde46d2b	-0.11153635
77	0xbd67639f	-0.05649149
78	0xbe017841	-0.1264353
79	0x3cdc0f94	0.026862897
80	0x3d906afd	0.070516564
81	0xbda55d38	-0.08074421
82	0x3da42bb4	0.08016148
83	0xbdeed990	-0.116625905
84	0x3d9a26b9	0.07526917
85	0xbdf0326b	-0.117283665
86	0xbe0c9010	-0.1372683
87	0xbda12fa3	-0.07870414
88	0x3cd2dd5b	0.025740316
89	0xbdddca71	-0.10829628
90	0x3d45040a	0.048099555
91	0xbe01a829	-0.12661804
92	0xbbf61443	-0.0075097396
93	0xbd6671b1	-0.05626077
94	0xbd775d6a	-0.06039182
95	0xbdb677cb	-0.089095674
96	0x3de8a26c	0.113591045
97	0x3db22bec	0.08699784
98	0xbdc6b3d0	-0.09702265
99	0xbc4628ba	-0.012094671
100	0xbdada30b	-0.084783636
101	0xbe1132d6	-0.14179549
102	0xbd5aae4b	-0.053388875
103	0x3d82536d	0.063635685
104	0xbe0cb601	-0.13741304
105	0x3dbcfd1f	0.092279665
106	0x3d1ad1a2	0.037797578
107	0x3d33bd9a	0.04388199
108	0x3daaf237	0.0834698
109	0xbd3d5b75	-0.0462298
110	0x3d583315	0.05278309
111	0x3d6d0d0a	0.057873763
112	0xbe00a497	-0.12562786
113	0x3d1461ee	0.036226206
114	0xbca77c1f	-0.020444928
115	0xbe0edf2b	-0.1395232
116	0x3dacfb53	0.08446374
117	0xbdff9f83	-0.12481596
118	0xbcf12df4	-0.029440857
119	0xbdb24102	-0.087038055
120	0x3d91a283	0.07111075
121	0xbc931ee4	-0.017959066
122	0xbd9e48c0	-0.0772872
123	0xbd721999	-0.059106443
124	0x3cd358c8	0.02579917
125	0xbdd5722f	-0.104221694
126	0x3c0981af	0.008392735
127	0xbdf9da30	-0.12199819
128	0xbdaf507b	-0.08560272
129	0xbb110496	-0.0022127978
130	0xbda1a239	-0.0789227
131	0x3cd762b0	0.026292175
132	0xbda44717	-0.08021372
133	0xbcad75cb	-0.021174332
134	0x3cab6eee	0.020926919
135	0x3d890381	0.066901214
136	0xbd57afef	-0.052658018
137	0x3d8607ba	0.065444425
138	0xbe02fe23	-0.12792258
139	0xbd62f6e2	-0.055411227
140	0x3db2edc6	0.08736758
141	0xbd386981	-0.04502249
142	0xbdde0196	-0.10840146
143	0x3bfa1fd7	0.00763319
144	0x3c0905c0	0.008363187
145	0x3d7793e1	0.060443763
146	0xbc7df016	-0.0154991355
147	0xbdb07a9c	-0.08617136
148	0x3cec8fbf	0.028877137
149	0x3dc24434	0.09485665
150	0xbadc0206	-0.0016785271
151	0x3ca73ab8	0.020413741
152	0x3d2343dd	0.03985964
153	0xbbf2c818	-0.007409107
154	0xbc8c7902	-0.017147545
155	0xbc99ee02	-0.018790249
156	0xbe057ad5	-0.13035138
157	0x3d3aa527	0.045567658
158	0xbd3367d2	-0.043800183
159	0xbddc6536	-0.10761492
160	0xbd99b65b	-0.07505485
161	0x3d170185	0.036866684
162	0xbd568e75	-0.05238195
163	0xbdae805a	-0.08520575
164	0x3d1b498e	0.037911944
165	0xbda695d8	-0.08134049
166	0xbdb32e78	-0.087490976
167	0x3d500c98	0.05079326
168	0xbdab241a	-0.08356495
169	0xbdea5cfc	-0.114435166
170	0x3c73bb4c	0.014876198
171	0xbd2673ec	-0.040637895
172	0x3c581fc8	0.013191171
173	0xbd8eba5d	-0.0696914
174	0xbbd42331	-0.0064739217
175	0xbccb9844	-0.02485288
176	0x3d9992f7	0.074987344
177	0x3d47ec4d	0.04880934
178	0xbd052f82	-0.03251601
179	0x3d607ef2	0.054808564
180	0xbdb517ae	-0.08842407
181	0xbe00ab02	-0.12565234
182	0xbd3e9427	-0.046528008
183	0xbd8a90ac	-0.06765875
184	0xbdea51a9	-0.11441357
185	0x3dd32218	0.10309237
186	0x3dadd93b	0.08488699
187	0xbde40368	-0.11133462
188	0xbdeea4ac	-0.116525024
189	0xbd5e7e0d	-0.05431943
190	0x3d0578e3	0.03258599
191	0x3d10329e	0.035204522
192	0xbbdafe9a	-0.006683183
193	0x3ddce8b6	0.107865736
194	0x3dd02079	0.10162444
195	0x3d423f8f	0.047423895
196	0xbd79f7e9	-0.06102744
197	0xbd37ff70	-0.04492134
198	0xbb9644e9	-0.0045858514
199	0xbd16cc02	-0.03681565
200	0x3cf49ce9	0.029859977
201	0x3daf9144	0.08572629
202	0xbd90b03d	-0.07064865
203	0xbe0b7921	-0.13620426
204	0xbdd348a4	-0.103165895
205	0x3c968c61	0.018377485
206	0xbdb8b266	-0.09018402
207	0x3d886f73	0.06661882
208	0x3d0b3afe	0.033991806
209	0x3d094cfc	0.033520684
210	0xbd2d1d5a	-0.04226432
211	0x3d68f05a	0.056869842
212	0x3d9f1d19	0.07769222
213	0x3cfe5af3	0.031049227
214	0x3d04daea	0.032435335
215	0x3c8a01dd	0.016846592
216	0xbcedd270	-0.029031008
217	0x3ca268c1	0.019825341
218	0x3d14d0a1	0.036331777
219	0x3dd16d72	0.10225953
220	0xbc6c4de1	-0.014422865
221	0x3d3299fa	0.043603875
222	0x3dd25009	0.10269172
223	0xbdd2f4a1	-0.103005655
224	0xbb90bf90	-0.0044173673
225	0xbe0ed211	-0.13947321
226	0xbda59c53	-0.08086457
227	0x3dac4211	0.08411039
228	0xbe0323f4	-0.12806684
229	0x3dc456be	0.09586857
230	0x3dcb4927	0.09926062
231	0xbdacf115	-0.0844442
232	0xbe03d32b	-0.12873523
233	0xbd157981	-0.03649283
234	0xbda08bd3	-0.07839169
235	0x3d050305	0.032473583
236	0xbd34583a	-0.044029452
237	0x3d234442	0.039860018
238	0xbcaaed45	-0.020865092
239	0xbc102193	-0.008797067
240	0xbdadc4bf	-0.08484792
241	0x3d177aa6	0.0369822
242	0x3c977ee4	0.018493123
243	0xba87a9a4	-0.001035024
244	0xbcd45039	-0.02591716
245	0xbc91f8ba	-0.017818797
246	0xbd554457	-0.052067127
247	0x3cb31a3b	0.021863094
248	0x3d3ac168	0.045594603
249	0xbd7335bc	-0.059377417
250	0xbd7d3127	-0.061814453
251	0x3d9346e3	0.07191255
252	0x3d844083	0.06457617
253	0xbde78de6	-0.11306362
254	0xbd3aab59	-0.045573566
255	0xbc9465a4	-0.018114872

lstm.bias_hh_l0 f4 [256]
0	0xbd841923	-0.06450107
1	0xbaf838b2	-0.0018937795
2	0xbd2d3802	-0.04228974
3	0xbe06556e	-0.13118526
4	0xbdb051df	-0.08609366
5	0x3d880bef	0.06642901
6	0x3d11421d	0.03546344
7	0x3dcd2510	0.10016835
8	0x3dce0289	0.10059077
9	0x3b1325f4	0.0022453042
10	0x3d9dfa3d	0.07713745
11	0xbcffce4d	-0.031226302
12	0x3d91ce2b	0.071194015
13	0xbde5667e	-0.112011895
14	0xbd4f1bbc	-0.05056356
15	0x3c456e34	0.0120502
16	0x3c6aa98c	0.01432265
17	0x3d307728	0.043082386
18	0x3df932dd	0.121679045
19	0x3dd0f521	0.10203005
20	0xbdc2a817	-0.09504717
21	0xbcdd7f13	-0.027038133
22	0x3ca8ae3b	0.020590892
23	0x3c57d3e5	0.013173078
24	0xbe009fd2	-0.12560967
25	0x3d257abb	0.040400248
26	0x3cb4746c	0.02202817
27	0x3d895f6b	0.06707653
28	0xbd007487	-0.03136113
29	0xbaf1bcf8	-0.0018443158
30	0x3d9d22cb	0.07672652
31	0x3de3e663	0.11127927
32	0xbd1b2c30	-0.037883937
33	0x3d03f327	0.03221431
34	0xbced9085	-0.028999576
35	0x3d89814b	0.06714114
36	0xbd8a0843	-0.06739857
37	0x3b79368d	0.00380269
38	0xbddfda8e	-0.10930358
39	0x3d20e098	0.03927669
40	0xbddd529f	-0.10806774
41	0xbd9dfaab	-0.07713827
42	0xbc7de3b6	-0.015496185
43	0xbd891729	-0.066938706
44	0x3dbf88d3	0.09352269
45	0x3de5336b	0.11191448
46	0x3d65e892	0.05613
47	0xbd821aae	-0.06352745
48	0x3d98dd84	0.07464126
49	0x3dffe687	0.124951415
50	0xbd3a5312	-0.04548938
51	0xbda481bc	-0.08032557
52	0x3da8d7d0	0.08244288
53	0x3e16b18d	0.14716168
54	0x3d5cae36	0.053877078
55	0xbe0c9356	-0.13728079
56	0xbdbb9006	-0.0915833
57	0x3d9c32c2	0.07626869
58	0xbdf58cad	-0.119897224
59	0x3cbd6254	0.023118176
60	0x3d6ef3d5	0.058338005
61	0xbce7ea2f	-0.02830991
62	0xbdb3299f	-0.08748173
63	0xbdf1836d	-0.117926456
64	0x3d932d60	0.07186389
65	0x3cf8a722	0.030353133
66	0x3d8bc703	0.06825068
67	0xbdb37ddd	-0.08764241
68	0xbd6758a8	-0.056481034
69	0x3d566765	0.0523447
70	0xbe0f616f	-0.14002012
71	0x3d60a193	0.05484159
72	0xbc65160c	-0.013982307
73	0x3d89808b	0.06713971
74	0xbd6d2a45	-0.05790164
75	0xbd87ea6d	-0.0663651
76	0xbdcdb08d	-0.1004344
77	0x3d4c7c59	0.049923275
78	0xbd076430	-0.03305453
79	0xbd1156ed	-0.03548329
80	0xbe08d709	-0.1336328
81	0x3de79e54	0.113094956
82	0x3de51026	0.11184721
83	0xbda21812	-0.07914747
84	0xbcfffc29	-0.031248169
85	0xbd5db3ec	-0.054126665
86	0xbdf344c8	-0.11878353
87	0xbdd3a484	-0.10334113
88	0xbcd69cf9	-0.026197897
89	0x3d81c499	0.06336326
90	0xbdc24233	-0.09485283
91	0x3deaecb7	0.11470931
92	0xbc88ecce	-0.01671448
93	0xbdd2f32b	-0.10300287
94	0xbde0182b	-0.1094211
95	0x3ded1ca2	0.11577727
96	0xbce6d6fa	-0.02817868
97	0x3d2eb880	0.04265642
98	0x3d22272e	0.039588146
99	0x3dde41da	0.10852404
100	0xbda5c893	-0.08094897
101	0x3b8163c8	0.0039486624
102	0x3d2de5c9	0.04245547
103	0xbd5158ea	-0.051110186
104	0xbdc5e1d4	-0.09662214
105	0xbd41344d	-0.04716902
106	0xbdaceeac	-0.084439605
107	0xbda67006	-0.081268355
108	0xbde621b3	-0.11236896
109	0xbcc84e4e	-0.024451401
110	0x3bd38747	0.0064553353
111	0xbda99081	-0.08279515
112	0xbd48fec7	-0.0490711
113	0xbb68e91d	-0.0035539337
114	0x3d2b37cd	0.041801263
115	0x3cf4cbf1	0.029882403
116	0x3dc6c94b	0.09706362
117	0xbd9557eb	-0.0729216
118	0xbc12e6ac	-0.008966129
119	0xbdf085ac	-0.11744246
120	0x3d36b722	0.044608243
121	0xbda20016	-0.07910173
122	0x3d7ae862	0.061256774
123	0x3cf4ec11	0.029897721
124	0xbc8d8842	-0.017276887
125	0xbd1fe651	-0.039038006
126	0x3c7cb234	0.015423346
127	0x3d1044b1	0.03522176
128	0x3cdeb818	0.027187392
129	0x3a33268b	0.00068340515
130	0xbddfbbab	-0.10924467
131	0xbda324d0	-0.07966006
132	0xbdfe3dd9	-0.1241414
133	0xbcc6235d	-0.024186784
134	0xbdb249f7	-0.08705514
135	0xbcbca11d	-0.023026044
136	0x3d89c175	0.06726352
137	0x3d576dbe	0.052594893
138	0x3cca0e57	0.02466504
139	0x3cba06be	0.022708293
140	0x3de34650	0.110973954
141	0x3d859a77	0.065236025
142	0x3cd730fd	0.026268477
143	0x3e019d06	0.12657556
144	0xbdac53df	-0.08414435
145	0x3dae1d61	0.08501697
146	0x3dc0a144	0.09405759
147	0xbdf286f6	-0.11842148
148	0xbdd15afe	-0.102224335
149	0xbc8eb9b9	-0.017422544
150	0x3da6d017	0.08145159
151	0x3db7bc5a	0.08971472
152	0xbdc1d839	-0.09465069
153	0x3db2213b	0.086977445
154	0xbbff4ae3	-0.0077909096
155	0xbd239242	-0.039934404
156	0xbd2b0e8b	-0.041761916
157	0x3d5cc995	0.05390318
158	0x3db75b63	0.089529775
159	0x3a88e8c8	0.0010445351
160	0xbdd680a3	-0.10473754
161	0xbc06e77e	-0.008233903
162	0xbe03493a	-0.12820902
163	0xbe0b545b	-0.13606398
164	0x3c3c7533	0.011502552
165	0xbd527a7d	-0.051386345
166	0xbdf4eb08	-0.11958891
167	0xbde7a7be	-0.11311291
168	0x3db598ab	0.0886701
169	0x3dad55e2	0.084636465
170	0xbd116c53	-0.035503697
171	0xbd2c9584	-0.042134777
172	0x3db21b5d	0.086966254
173	0xbd2c1f97	-0.042022314
174	0xbcab8ca7	-0.020941092
175	0xbd5ea170	-0.054353178
176	0x3d4a82f9	0.04944131
177	0xbe15201e	-0.14563033
178	0xbdaebf10	-0.08532536
179	0x3d617522	0.055043347
180	0x3dae53d4	0.08512083
181	0x3d2d118e	0.04225307
182	0x3adad7b9	0.001669637
183	0xbd8da2f5	-0.06915847
184	0xbd6479ea	-0.05578033
185	0xbd184f8a	-0.03718523
186	0xbe040db5	-0.12895854
187	0x3d094847	0.033516195
188	0xbd69fbd6	-0.057124935
189	0xbe0d4d0b	-0.13798921
190	0xbd3a03c4	-0.045413747
191	0x3dcf4877	0.101212434
192	0xbc9adb0f	-0.018903283
193	0xbde7ec33	-0.11324348
194	0x3d8c418b	0.06848439
195	0xbda515e2	-0.080608144
196	0x3da6c2db	0.081426345
197	0xbdcb59e9	-0.099292584
198	0x3e045f8b	0.12927072
199	0xbd37968a	-0.0448213
200	0x3debc9c2	0.115130916
201	0x3d87bda6	0.066279694
202	0x3dbde32e	0.09271847
203	0x3c054407	0.008133895
204	0xbd88bcd0	-0.06676638
205	0xbad8ed5f	-0.0016550234
206	0x3dbde720	0.09272599
207	0xbdd4ef1b	-0.10397168
208	0x3cee3c4c	0.029081486
209	0x3c6e2517	0.01453521
210	0x3db66ae3	0.08907106
211	0xbdbbb208	-0.09164816
212	0xbdcd1997	-0.100146465
213	0x3cc99e6f	0.02461168
214	0xbc2a59ec	-0.010397416
215	0xbda3746e	-0.079811916
216	0xbc7bbc82	-0.015364768
217	0x3db439eb	0.088001095
218	0xbddc5b45	-0.10759596
219	0xbc83234a	-0.016008038
220	0xbd3b3513	-0.045704912
221	0xbd106a1a	-0.035257436
222	0xbd467bfa	-0.048458077
223	0x3df048d2	0.11732639
224	0x3d8ab009	0.06771857
225	0xbbff1f3e	-0.007785707
226	0xbcba8e9d	-0.022773081
227	0x3da7c923	0.08192661
228	0xbdcee2a9	-0.10101826
229	0xbe08b84e	-0.13351557
230	0xbdc3b453	-0.095558785
231	0xbd1c6b9b	-0.038188558
232	0xbdd3dc7a	-0.10344787
233	0x3d81e2a2	0.06342055
234	0x3ce56771	0.028003426
235	0xbda21713	-0.07914557
236	0xbdb2334d	-0.08701191
237	0x3df7f28d	0.1210681
238	0x3dc3f876	0.095688745
239	0xbd94ed17	-0.07271784
240	0x3db64af7	0.08901017
241	0xbbfaa64d	-0.007649219
242	0xbd995776	-0.07487385
243	0x3d12febe	0.035887472
244	0xbdf0b3ba	-0.1175303
245	0xbdad641e	-0.084663615
246	0xbbe05d50	-0.006847061
247	0x3d8cc84d	0.06874142
248	0x3dae861e	0.085216746
249	0x3dca930d	0.09891329
250	0x3d6c0845	0.057625074
251	0xbb1df58f	-0.0024102663
252	0x3b00c4e9	0.0019648618
253	0xbd8eb73c	-0.06968543
254	0x3e0481d1	0.12940146
255	0x3db61588	0.088908255

fc.weight f4 [1, 64]
0	0xbdb9da6d	-0.090748645
1	0xbdd47bda	-0.10375185
2	0xbca80e5f	-0.020514665
3	0xbd913530	-0.07090223
4	0xbd330ba0	-0.04371226
5	0x3dc079ed	0.093982555
6	0xbd0fcd15	-0.03510769
7	0x3dc8a3ca	0.09796865
8	0xbcc624d6	-0.024187487
9	0x3cfeb7db	0.031093528
10	0xbc8fb7ff	-0.01754379
11	0xbd1fd654	-0.03902276
12	0x3d06c4ec	0.032902643
13	0xbd2ffaea	-0.0429639
14	0xbda38e73	-0.079861544
15	0x3c898664	0.016787715
16	0x3c7132f2	0.014721619
17	0x3cda0e0c	0.026618026
18	0x3cfc0fcc	0.030769251
19	0xbd1c66d3	-0.038184
20	0xbde5d400	-0.112220764
21	0x3d2d91e9	0.04237548
22	0x3d5150fd	0.051102627
23	0xbd9bd9f8	-0.076099336
24	0x3d903002	0.07040407
25	0xbcd311fd	-0.025765413
26	0xbdb3ce73	-0.087796114
27	0xbd896614	-0.06708923
28	0xbd28e4ec	-0.041233942
29	0xbd9bc61b	-0.07606145
30	0x3ced6657	0.028979464
31	0xbd8706e7	-0.065931134
32	0xbd7e4210	-0.06207472
33	0x3da82c0e	0.08211528
34	0xbd1b8302	-0.037966736
35	0xbc74954d	-0.014928174
36	0xbd56c4f7	-0.052433934
37	0xbd0bc0c8	-0.034119397
38	0xbd8e1421	-0.06937433
39	0xbd8dd3ed	-0.06925187
40	0xbd81b966	-0.0633419
41	0xbcd5f96b	-0.026119908
42	0x3cdddff5	0.02708433
43	0x3d10b9b6	0.035333358
44	0x3d8bbc3a	0.06823011
45	0xbd5e0b8f	-0.054210242
46	0xbd91ed13	-0.071252964
47	0xbd04f20c	-0.032457396
48	0x3dc981f1	0.098392375
49	0xbca14471	-0.019685956
50	0x3db1353a	0.0865273
51	0x3dadd569	0.084879704
52	0x3d87a7db	0.06623813
53	0xbd305c4d	-0.043056775
54	0x3cfe7b74	0.031064726
55	0xbd90da0a	-0.07072838
56	0xbca40ebc	-0.020026557
57	0x3d02ebff	0.031963345
58	0xbd8febeb	-0.0702742
59	0xbd84bcf9	-0.06481356
60	0xbd170037	-0.03686544
61	0xbca5bba2	-0.020231072
62	0xbcf7e153	-0.03025881
63	0x3d33079f	0.04370844
